Hands_On/_2_Hands_On_NPU_Mnist/Mnist_Model/cnn_mnist_quantized.tflite (tflite, 41192 bytes, 3 tensors)

sequential/dense/MatMul i1 [10, 1600] scale=0.0050014304 zero_point=0
0	0x02	0.010002861
1	0xe1	-0.15504435
2	0xf0	-0.08002289
3	0xeb	-0.10503004
4	0xf4	-0.060017165
5	0x0c	0.060017165
6	0xf7	-0.045012873
7	0xf0	-0.08002289
8	0xfd	-0.015004291
9	0x00	0.0
10	0xff	-0.0050014304
11	0xf7	-0.045012873
12	0xf7	-0.045012873
13	0x1a	0.13003719
14	0x13	0.09502718
15	0xe7	-0.12503576
16	0x0f	0.07502145
17	0xfb	-0.025007151
18	0xed	-0.09502718
19	0xe4	-0.14004005
20	0xfc	-0.020005722
21	0xf4	-0.060017165
22	0xfa	-0.030008582
23	0xef	-0.08502432
24	0x08	0.040011443
25	0x06	0.030008582
26	0xdf	-0.1650472
27	0xfe	-0.010002861
28	0xec	-0.100028604
29	0xf9	-0.035010014
30	0xe6	-0.13003719
31	0xf8	-0.040011443
32	0xfc	-0.020005722
33	0xfc	-0.020005722
34	0xdc	-0.18005149
35	0x0e	0.07002003
36	0x03	0.015004291
37	0xed	-0.09502718
38	0xfb	-0.025007151
39	0x06	0.030008582
40	0x01	0.0050014304
41	0xf1	-0.07502145
42	0xef	-0.08502432
43	0xee	-0.090025745
44	0xfb	-0.025007151
45	0x00	0.0
46	0xf0	-0.08002289
47	0xef	-0.08502432
48	0xf6	-0.050014302
49	0xda	-0.19005436
50	0xf9	-0.035010014
51	0xf8	-0.040011443
52	0xdc	-0.18005149
53	0xed	-0.09502718
54	0x03	0.015004291
55	0xf3	-0.065018594
56	0x16	0.11003147
57	0xd9	-0.19505578
58	0xf3	-0.065018594
59	0xf0	-0.08002289
60	0x0a	0.050014302
61	0xf3	-0.065018594
62	0xfc	-0.020005722
63	0x07	0.035010014
64	0xfa	-0.030008582
65	0xec	-0.100028604
66	0xe7	-0.12503576
67	0x22	0.17004864
68	0xed	-0.09502718
69	0xf1	-0.07502145
70	0xee	-0.090025745
71	0xca	-0.27007723
72	0xe9	-0.1150329
73	0xfb	-0.025007151
74	0xf0	-0.08002289
75	0xf0	-0.08002289
76	0xf3	-0.065018594
77	0xf4	-0.060017165
78	0xfe	-0.010002861
79	0xf9	-0.035010014
80	0xe3	-0.14504148
81	0xdb	-0.18505293
82	0xf2	-0.07002003
83	0xdb	-0.18505293
84	0x01	0.0050014304
85	0x05	0.025007151
86	0x13	0.09502718
87	0xfe	-0.010002861
88	0x07	0.035010014
89	0xff	-0.0050014304
90	0xd0	-0.24006866
91	0xe2	-0.1500429
92	0xfc	-0.020005722
93	0x08	0.040011443
94	0xf0	-0.08002289
95	0xff	-0.0050014304
96	0x00	0.0
97	0xf5	-0.055015735
98	0xd6	-0.21006007
99	0xf5	-0.055015735
100	0xfe	-0.010002861
101	0xdc	-0.18005149
102	0xd8	-0.20005721
103	0xf7	-0.045012873
104	0xfb	-0.025007151
105	0xf5	-0.055015735
106	0xc5	-0.2950844
107	0xb4	-0.3801087
108	0x04	0.020005722
109	0x01	0.0050014304
110	0xf0	-0.08002289
111	0xea	-0.11003147
112	0xe9	-0.1150329
113	0xd9	-0.19505578
114	0xe4	-0.14004005
115	0xee	-0.090025745
116	0xf3	-0.065018594
117	0xd8	-0.20005721
118	0xfc	-0.020005722
119	0xf8	-0.040011443
120	0xf5	-0.055015735
121	0xd7	-0.20505865
122	0x00	0.0
123	0xe6	-0.13003719
124	0x06	0.030008582
125	0xea	-0.11003147
126	0x01	0.0050014304
127	0x08	0.040011443
128	0x0b	0.055015735
129	0xfc	-0.020005722
130	0xf2	-0.07002003
131	0xec	-0.100028604
132	0x0f	0.07502145
133	0xf9	-0.035010014
134	0xdc	-0.18005149
135	0x01	0.0050014304
136	0xd7	-0.20505865
137	0xfb	-0.025007151
138	0x11	0.08502432
139	0xfd	-0.015004291
140	0xfa	-0.030008582
141	0xfe	-0.010002861
142	0x00	0.0
143	0x0d	0.065018594
144	0xf9	-0.035010014
145	0xeb	-0.10503004
146	0xf3	-0.065018594
147	0xfe	-0.010002861
148	0xdd	-0.17505006
149	0x02	0.010002861
150	0x01	0.0050014304
151	0xfa	-0.030008582
152	0x0b	0.055015735
153	0xf8	-0.040011443
154	0xe4	-0.14004005
155	0xe1	-0.15504435
156	0x06	0.030008582
157	0x0a	0.050014302
158	0xf4	-0.060017165
159	0xe6	-0.13003719
160	0xdf	-0.1650472
161	0xf9	-0.035010014
162	0x07	0.035010014
163	0xfc	-0.020005722
164	0x11	0.08502432
165	0xdd	-0.17505006
166	0xde	-0.17004864
167	0x05	0.025007151
168	0xf4	-0.060017165
169	0x04	0.020005722
170	0xee	-0.090025745
171	0xe3	-0.14504148
172	0x04	0.020005722
173	0x07	0.035010014
174	0xf4	-0.060017165
175	0x0c	0.060017165
176	0xf2	-0.07002003
177	0xfc	-0.020005722
178	0xf6	-0.050014302
179	0xd7	-0.20505865
180	0xed	-0.09502718
181	0xc4	-0.3000858
182	0x09	0.045012873
183	0xfa	-0.030008582
184	0x10	0.08002289
185	0xe8	-0.12003433
186	0xf8	-0.040011443
187	0xeb	-0.10503004
188	0xf8	-0.040011443
189	0xfa	-0.030008582
190	0xfe	-0.010002861
191	0xf8	-0.040011443
192	0xf2	-0.07002003
193	0xe8	-0.12003433
194	0x09	0.045012873
195	0xe4	-0.14004005
196	0xea	-0.11003147
197	0x02	0.010002861
198	0x04	0.020005722
199	0xe7	-0.12503576
200	0xec	-0.100028604
201	0x03	0.015004291
202	0x15	0.10503004
203	0xee	-0.090025745
204	0xfa	-0.030008582
205	0x03	0.015004291
206	0xfd	-0.015004291
207	0x16	0.11003147
208	0x01	0.0050014304
209	0xfc	-0.020005722
210	0xfc	-0.020005722
211	0xf6	-0.050014302
212	0xfa	-0.030008582
213	0x01	0.0050014304
214	0x03	0.015004291
215	0x10	0.08002289
216	0x09	0.045012873
217	0xe6	-0.13003719
218	0x0c	0.060017165
219	0xc9	-0.27507868
220	0xfe	-0.010002861
221	0xfa	-0.030008582
222	0xf1	-0.07502145
223	0xe6	-0.13003719
224	0xe5	-0.13503861
225	0xf4	-0.060017165
226	0xf2	-0.07002003
227	0x08	0.040011443
228	0xff	-0.0050014304
229	0xfb	-0.025007151
230	0xe7	-0.12503576
231	0x0e	0.07002003
232	0xf1	-0.07502145
233	0xfe	-0.010002861
234	0x04	0.020005722
235	0xfd	-0.015004291
236	0xfb	-0.025007151
237	0x04	0.020005722
238	0xf1	-0.07502145
239	0xf6	-0.050014302
240	0xf7	-0.045012873
241	0xfe	-0.010002861
242	0x07	0.035010014
243	0x05	0.025007151
244	0xf8	-0.040011443
245	0xe9	-0.1150329
246	0x01	0.0050014304
247	0xec	-0.100028604
248	0xe6	-0.13003719
249	0xe5	-0.13503861
250	0x0f	0.07502145
251	0xf3	-0.065018594
252	0xf9	-0.035010014
253	0xfe	-0.010002861
254	0xde	-0.17004864
255	0x0a	0.050014302

sequential/conv2d_1/Conv2D i1 [64, 3, 3, 32]
0	0xea	-22
1	0x1e	30
2	0xff	-1
3	0x38	56
4	0xfe	-2
5	0x43	67
6	0x0a	10
7	0x10	16
8	0x18	24
9	0x4f	79
10	0xdf	-33
11	0x0a	10
12	0x4a	74
13	0x13	19
14	0x08	8
15	0xef	-17
16	0xfc	-4
17	0x24	36
18	0x2d	45
19	0x2a	42
20	0xd5	-43
21	0x03	3
22	0xba	-70
23	0x3d	61
24	0xd1	-47
25	0x1a	26
26	0xf3	-13
27	0x25	37
28	0x11	17
29	0xf1	-15
30	0xe5	-27
31	0x2a	42
32	0x0d	13
33	0xeb	-21
34	0xe7	-25
35	0x66	102
36	0x15	21
37	0x3b	59
38	0x07	7
39	0xde	-34
40	0xe0	-32
41	0x46	70
42	0xe0	-32
43	0x33	51
44	0x2c	44
45	0xf6	-10
46	0x06	6
47	0x12	18
48	0x32	50
49	0xfc	-4
50	0x32	50
51	0x1b	27
52	0xab	-85
53	0x2c	44
54	0xa3	-93
55	0x2f	47
56	0xee	-18
57	0x01	1
58	0xd8	-40
59	0x0a	10
60	0xeb	-21
61	0x05	5
62	0x08	8
63	0x5d	93
64	0xdf	-33
65	0xdc	-36
66	0xfb	-5
67	0x0b	11
68	0x12	18
69	0x04	4
70	0xe1	-31
71	0x9a	-102
72	0xe4	-28
73	0xde	-34
74	0xe6	-26
75	0xd9	-39
76	0xd7	-41
77	0xc0	-64
78	0x05	5
79	0xe7	-25
80	0xfd	-3
81	0xe9	-23
82	0xef	-17
83	0xde	-34
84	0xa0	-96
85	0x00	0
86	0x81	-127
87	0xd2	-46
88	0xf2	-14
89	0xfe	-2
90	0xdf	-33
91	0x04	4
92	0xdf	-33
93	0x11	17
94	0xf4	-12
95	0x19	25
96	0x33	51
97	0xfd	-3
98	0xf9	-7
99	0x0a	10
100	0x27	39
101	0x02	2
102	0x15	21
103	0xfa	-6
104	0x21	33
105	0x0c	12
106	0x9f	-97
107	0xf6	-10
108	0x2b	43
109	0x00	0
110	0xcd	-51
111	0x0a	10
112	0x24	36
113	0x0b	11
114	0xf6	-10
115	0x00	0
116	0xe3	-29
117	0x26	38
118	0xeb	-21
119	0x1f	31
120	0x10	16
121	0xf9	-7
122	0x33	51
123	0xed	-19
124	0x09	9
125	0x28	40
126	0xf0	-16
127	0x01	1
128	0x1a	26
129	0xed	-19
130	0xea	-22
131	0xfd	-3
132	0x26	38
133	0x0e	14
134	0xd3	-45
135	0xb7	-73
136	0xc9	-55
137	0xe8	-24
138	0x39	57
139	0xca	-54
140	0xde	-34
141	0xb8	-72
142	0x06	6
143	0x0a	10
144	0x2d	45
145	0x02	2
146	0xe1	-31
147	0xb7	-73
148	0xff	-1
149	0x48	72
150	0xf7	-9
151	0xce	-50
152	0xe5	-27
153	0xe8	-24
154	0x0e	14
155	0xed	-19
156	0xe3	-29
157	0x1e	30
158	0x39	57
159	0xeb	-21
160	0x17	23
161	0xd6	-42
162	0xce	-50
163	0xb1	-79
164	0x05	5
165	0xc5	-59
166	0xc6	-58
167	0xd5	-43
168	0x9f	-97
169	0xc9	-55
170	0x15	21
171	0xe6	-26
172	0xbf	-65
173	0xe6	-26
174	0xe9	-23
175	0xee	-18
176	0xd7	-41
177	0xf5	-11
178	0xb5	-75
179	0x06	6
180	0x03	3
181	0xed	-19
182	0x12	18
183	0xda	-38
184	0xea	-22
185	0xef	-17
186	0x38	56
187	0xd8	-40
188	0xe6	-26
189	0x12	18
190	0xef	-17
191	0xbb	-69
192	0x09	9
193	0xa4	-92
194	0xaa	-86
195	0x2d	45
196	0xdb	-37
197	0x11	17
198	0xce	-50
199	0xa4	-92
200	0xbb	-69
201	0xd3	-45
202	0x05	5
203	0xc6	-58
204	0xb4	-76
205	0xb5	-75
206	0xe4	-28
207	0xd3	-45
208	0xff	-1
209	0xc7	-57
210	0xe8	-24
211	0xde	-34
212	0xbd	-67
213	0x2d	45
214	0xc9	-55
215	0xb8	-72
216	0xca	-54
217	0xc2	-62
218	0x02	2
219	0xad	-83
220	0xaf	-81
221	0xd0	-48
222	0x57	87
223	0xf3	-13
224	0xce	-50
225	0x0d	13
226	0xfb	-5
227	0x54	84
228	0xe6	-26
229	0x2d	45
230	0xd3	-45
231	0xe7	-25
232	0xf5	-11
233	0x2f	47
234	0x36	54
235	0xd2	-46
236	0x08	8
237	0x18	24
238	0x1d	29
239	0x06	6
240	0xda	-38
241	0xfe	-2
242	0x23	35
243	0x00	0
244	0x22	34
245	0x0f	15
246	0x07	7
247	0x18	24
248	0xef	-17
249	0xee	-18
250	0xbd	-67
251	0xf6	-10
252	0xf1	-15
253	0xcc	-52
254	0x57	87
255	0xf4	-12

sequential/conv2d/Conv2D i1 [32, 3, 3, 1]
0	0x5b	91
1	0x56	86
2	0x3d	61
3	0xfe	-2
4	0x25	37
5	0x1c	28
6	0xc7	-57
7	0x81	-127
8	0x83	-125
9	0x8d	-115
10	0x2d	45
11	0x68	104
12	0xaf	-81
13	0x7f	127
14	0x42	66
15	0x5a	90
16	0x66	102
17	0x9c	-100
18	0xe6	-26
19	0x0c	12
20	0x66	102
21	0x49	73
22	0x42	66
23	0xd9	-39
24	0x55	85
25	0xce	-50
26	0x7f	127
27	0x81	-127
28	0xd7	-41
29	0x3f	63
30	0x8c	-116
31	0x05	5
32	0x68	104
33	0x93	-109
34	0x04	4
35	0x3d	61
36	0x47	71
37	0x1a	26
38	0x76	118
39	0x3e	62
40	0x1f	31
41	0x19	25
42	0x81	-127
43	0x90	-112
44	0xa0	-96
45	0x88	-120
46	0xef	-17
47	0x47	71
48	0xb1	-79
49	0xec	-20
50	0x2b	43
51	0x81	-127
52	0xe5	-27
53	0x4b	75
54	0x5d	93
55	0x1d	29
56	0x21	33
57	0x33	51
58	0xd7	-41
59	0x29	41
60	0x13	19
61	0x56	86
62	0x81	-127
63	0xfb	-5
64	0xc9	-55
65	0x81	-127
66	0x68	104
67	0x1d	29
68	0x8c	-116
69	0x36	54
70	0x6b	107
71	0x0c	12
72	0xfe	-2
73	0x2b	43
74	0x65	101
75	0x9f	-97
76	0xcf	-49
77	0x54	84
78	0xd8	-40
79	0x81	-127
80	0xd2	-46
81	0xda	-38
82	0x63	99
83	0xf1	-15
84	0xa3	-93
85	0x29	41
86	0x46	70
87	0x81	-127
88	0xf5	-11
89	0x45	69
90	0x98	-104
91	0xa8	-88
92	0xfb	-5
93	0x81	-127
94	0x13	19
95	0x3c	60
96	0x34	52
97	0x7a	122
98	0x3e	62
99	0x20	32
100	0x0d	13
101	0x9d	-99
102	0x3f	63
103	0xd6	-42
104	0x81	-127
105	0x5f	95
106	0x3c	60
107	0xf4	-12
108	0xb5	-75
109	0x4c	76
110	0x52	82
111	0x81	-127
112	0xfa	-6
113	0x2c	44
114	0xc5	-59
115	0xc8	-56
116	0x1b	27
117	0x35	53
118	0x5d	93
119	0xad	-83
120	0xe4	-28
121	0x55	85
122	0x49	73
123	0x81	-127
124	0xea	-22
125	0x20	32
126	0x81	-127
127	0xc5	-59
128	0x48	72
129	0x97	-105
130	0x37	55
131	0xf6	-10
132	0x34	52
133	0x43	67
134	0x50	80
135	0xfb	-5
136	0x11	17
137	0x48	72
138	0x3b	59
139	0x08	8
140	0x68	104
141	0xbc	-68
142	0x81	-127
143	0xb2	-78
144	0xd1	-47
145	0x0c	12
146	0x45	69
147	0x39	57
148	0x64	100
149	0xe7	-25
150	0x22	34
151	0xcd	-51
152	0x81	-127
153	0x3d	61
154	0x4a	74
155	0x24	36
156	0x0c	12
157	0xb6	-74
158	0xb8	-72
159	0xea	-22
160	0x7f	127
161	0x4e	78
162	0x0b	11
163	0x09	9
164	0xf8	-8
165	0x81	-127
166	0x30	48
167	0x47	71
168	0xd7	-41
169	0x2e	46
170	0x04	4
171	0xd4	-44
172	0x47	71
173	0xf6	-10
174	0xee	-18
175	0x62	98
176	0xad	-83
177	0x45	69
178	0x4a	74
179	0x81	-127
180	0xc7	-57
181	0x81	-127
182	0xb6	-74
183	0xfb	-5
184	0x2e	46
185	0x05	5
186	0x50	80
187	0x4d	77
188	0x20	32
189	0x4e	78
190	0x66	102
191	0xfb	-5
192	0x49	73
193	0x17	23
194	0x81	-127
195	0xf8	-8
196	0x96	-106
197	0xa5	-91
198	0xa7	-89
199	0x81	-127
200	0xaa	-86
201	0x1c	28
202	0xfd	-3
203	0x22	34
204	0x5f	95
205	0x5b	91
206	0x2e	46
207	0xd2	-46
208	0x56	86
209	0xea	-22
210	0xa2	-94
211	0x34	52
212	0x27	39
213	0xec	-20
214	0x7f	127
215	0xc2	-62
216	0x46	70
217	0x60	96
218	0x46	70
219	0xc3	-61
220	0xfe	-2
221	0x2d	45
222	0x81	-127
223	0xad	-83
224	0xec	-20
225	0xd1	-47
226	0x44	68
227	0x2f	47
228	0x40	64
229	0x12	18
230	0x81	-127
231	0x91	-111
232	0x73	115
233	0x0e	14
234	0x3a	58
235	0x3c	60
236	0x27	39
237	0xfb	-5
238	0x17	23
239	0x02	2
240	0x81	-127
241	0xa1	-95
242	0xa5	-91
243	0x4b	75
244	0x46	70
245	0x41	65
246	0x54	84
247	0xfc	-4
248	0x2a	42
249	0x3a	58
250	0x7f	127
251	0xc0	-64
252	0x3a	58
253	0xce	-50
254	0x47	71
255	0x4f	79
