Hands_On/_2_Hands_On_NPU_Mnist/Mnist_Model/network_output/cnn_mnist_quantized_OE_3_1_0.onnx (onnx, 143474 bytes, 6 tensors)

Conv2D_4_weights f4 [32, 1, 3, 3]
0.24355453 0.23017241 0.16326183 -0.005352847 0.09902766 0.074939854 -0.15255614 -0.33990577
-0.3345529 -0.20907742 0.0818129 0.1890787 -0.14726323 0.2308942 0.119992256 0.1636258
0.18544258 -0.18180645 -0.031647094 0.014606351 0.12415398 0.0888553 0.08033493 -0.04747064
0.10346165 -0.060859796 0.15458387 -0.35910708 -0.115932204 0.17813973 -0.32800332 0.014138074
0.29407194 -0.30821002 0.011310459 0.1724845 0.19526744 0.07150639 0.324529 0.17051522
0.08525761 0.06875614 -0.3492812 -0.3080275 -0.26402357 -0.40135744 -0.056858968 0.2374698
-0.26422697 -0.06689291 0.14381975 -0.42476994 -0.090305425 0.25084838 0.15172838 0.047313146
0.0538391 0.08320588 -0.066891 0.066891 0.03099827 0.14030796 -0.20719896 -0.022997448
-0.25297195 -0.5841352 0.47834694 0.1333852 -0.5335408 0.24837245 0.4921454 0.05519388
-0.009273102 0.19937168 0.46829164 -0.44974542 -0.22719099 0.38947028 -0.18546203 -0.588842
-0.21328133 -0.10889955 0.28371197 -0.042986665 -0.2665173 0.11749688 0.20060442 -0.36395374
-0.03152355 0.19773865 -0.38126698 -0.32261053 -0.018330144 -0.46558562 0.06965455 0.21996172
0.19063349 0.4472555 0.22729377 0.118956484 0.04832607 -0.3680216 0.23419558 -0.15613039
-0.47210854 0.35315207 0.22304341 -0.044608682 -0.2817155 0.28547174 0.30800897 -0.4770383
-0.022537243 0.1652731 -0.22161621 -0.2103476 0.101417586 0.14090039 0.24724029 -0.22065532
-0.07443794 0.22597231 0.19407034 -0.33762923 -0.05848695 0.08507193 -0.26239368 -0.12189943
0.14875863 -0.21693967 0.11363506 -0.020660922 0.10743679 0.13842817 0.16528738 -0.01454561
0.049455076 0.20945679 0.1716382 0.023272976 0.3025487 -0.1978203 -0.3694585 -0.22691151
-0.19729213 0.05037246 0.28964165 0.23926918 0.4197705 -0.10494263 0.14272197 -0.21408296
-0.53310853 0.079594776 0.096557595 0.046973966 0.01565799 -0.096557595 -0.09394793 -0.028706312
0.16571371 0.10177693 0.0444507 0.036368754 -0.032327782 -0.51320356 0.19396669 0.28690907
-0.16567989 0.18588474 0.016163891 -0.107326664 0.1731862 -0.024392422 -0.04390636 0.23904575
-0.20245712 0.16830772 0.18050393 -0.3097838 -0.17796928 -0.39652804 -0.23104784 -0.01561134
0.14362434 0.01561134 0.24978144 0.24041463 0.09991258 0.38900608 0.50870025 -0.024936289
0.3640698 0.114706926 -0.6333817 -0.03989806 -0.5286493 -0.45384043 -0.34250924 -0.48874915
-0.33096397 0.10775571 -0.011545255 0.13084622 0.36559975 0.35020608 0.17702724 -0.09499802
0.17760499 -0.045433834 -0.19412638 0.10738906 0.0805418 -0.041303486 0.26227713 -0.1280408
0.25007713 0.34296292 0.25007713 -0.21792436 -0.0071450607 0.16076386 -0.45371136 -0.29652002
-0.071450606 -0.08102651 0.11722984 0.08102651 0.11033397 0.03103143 -0.21894397 -0.19136049
0.19825636 0.024135556 0.2500083 0.2586293 0.16810904 -0.021552442 0.09914123 0.0086209765
-0.547432 -0.4094964 -0.39225444 0.11271108 0.105197005 0.09768293 0.12623641 -0.0060112574
0.063118204 0.08716323 0.19085743 -0.09618012 0.06931451 -0.059753887 0.08485052 0.09441114
00000000: 5c66 793e 51b2 6b3e 1c2e 273e ef66 afbb
00000010: 04cf ca3d 117a 993d ad37 1cbe 2108 aebe
00000020: 854a abbe 6418 56be 868d a73d d99d 413e
00000030: 2ccc 16be 876f 6c3e 80be f53d 868d 273e
00000040: a9e4 3d3e 782b 3abe 62a0 01bd 7a4f 6f3c
00000050: 7144 fe3d c4f9 b53d a486 a43d 9370 42bd
00000060: b4e3 d33d 1f48 79bd 3c4b 1e3e e2dc b7be
00000070: dd6d edbd 436a 363e 0df0 a7be 61a3 673c
00000080: 9990 963e b4cd 9dbe 814f 393c c79f 303e
00000090: 30f4 473e f171 923d aa28 a63e 8b9b 2e3e
000000a0: 8b9b ae3d 05d0 8c3d fcd4 b2be c8b5 9dbe
000000b0: 192e 87be b97e cdbe f3e4 68bd 492b 733e
000000c0: c248 87be 26ff 88bd 7c45 133e 727b d9be
000000d0: 0df2 b8bd 336f 803e af5e 1b3e 6ecb 413d
000000e0: 6386 5c3d d867 aa3d 26fe 88bd 26fe 883d
000000f0: 15f0 fd3c e4ac 0f3e f72b 54be 2565 bcbc
00000100: 8a85 81be e289 15bf e4e9 f43e 2196 083e
00000110: 2196 08bf 5955 7e3e 7bfa fb3e fa12 623d
00000120: 35ee 17bc 1728 4c3e ecc3 ef3e 0845 e6be
00000130: c1a4 68be a668 c73e c2e9 3dbe 59be 16bf
00000140: 6c66 5abe ba06 dfbd b242 913e c912 30bd
00000150: f574 88be 34a2 f03d 3f6b 4d3e 2558 babe
00000160: d71e 01bd 007c 4a3e 6d35 c3be 352d a5be
00000170: 1929 96bc 3d61 eebe 0ba7 8e3d a53d 613e
00000180: 6d35 433e acfe e43e b3bf 683e 759f f33d
00000190: 8ff1 453d 546d bcbe f7d0 6f3e a5e0 1fbe
000001a0: 36b8 f1be 59d0 b43e 7e65 643e 98b7 36bd
000001b0: 043d 90be 5a29 923e 5ab3 9d3e 5d3e f4be
000001c0: 06a0 b8bc 5a3d 293e 5cef 62be 5c65 57be
000001d0: 06b4 cf3d 3148 103e 8f2c 7d3e 78f3 61be
000001e0: eb72 98bd 4965 673e 60ba 463e bddd acbe
000001f0: 0390 6fbd 313a ae3d 7758 86be 69a6 f9bd
00000200: 2f54 183e 6f25 5ebe 80b9 e83d 1841 a9bc
00000210: d207 dc3d 1dc0 0d3e 1841 293e b650 6ebc
00000220: 6891 4a3d d77b 563e edc1 2f3e f8a6 be3c
00000230: aae7 9a3e 6891 4abe aa29 bdbe 7e5b 68be
00000240: f306 4abe 5a53 4e3d e94b 943e fb02 753e
00000250: 29ec d63e 29ec d6bd b525 123e 9038 5bbe
00000260: cd79 08bf 9602 a33d fdbf c53d c667 403d
00000270: 2f45 803c fdbf c5bd c667 c0bd 8029 ebbc
00000280: dbb0 293e 6c70 d03d f011 363d 67f7 143d
00000290: 236a 04bd 4f61 03bf 349f 463e bfe5 923e
000002a0: fda7 29be 9258 3e3e 236a 843c 15ce dbbd
000002b0: b957 313e 9ed2 c7bc 28d7 33bd 69c8 743e
000002c0: eb50 4fbe dc58 2c3e 06d6 383e fb9b 9ebe
000002d0: 943d 36be b905 cbbe ce97 6cbe b5c6 7fbc
000002e0: 4212 133e b5c6 7f3c b5c6 7f3e 412f 763e
000002f0: f79e cc3d ce2b c73e 2e3a 023f 3047 ccbc
00000300: 5b67 ba3e 77eb ea3d 4e25 22bf 266c 23bd
00000310: 8f55 07bf c65d e8be 5f5d afbe 543d fabe
00000320: 1c74 a9be 07af dc3d 4f28 3dbc 8dfc 053e
00000330: e42f bb3e 364e b33e a146 353e 528e c2bd
00000340: 15de 353e d418 3abd 11c9 46be ccee db3d
00000350: 19f3 a43d d82d 29bd 3049 863e 211d 03be
00000360: 1c0a 803e d698 af3e 1c0a 803e 9027 5fbe
00000370: 1d21 eabb 489f 243e db4c e8be 79d1 97be
00000380: b254 92bd 3af1 a5bd 3316 f03d 3af1 a53d
00000390: c7f6 e13d a035 fe3c d932 60be 01f4 43be
000003a0: b703 4b3e eeb7 c53c 1701 803e 0f6b 843e
000003b0: c724 2c3e bf8e b0bc 8f0a cb3d ff3e 0d3c
000003c0: 8124 0cbf 83a9 d1be 93d5 c8be 11d5 e63d
000003d0: 8771 d73d fd0d c83d 1e44 013e 15fa c4bb
000003e0: 1e44 813d a382 b23d 2170 433e 15fa c4bd
000003f0: c4f4 8d3d 7ec0 74bd 1cc6 ad3d a15a c13d

Conv2D_4_bias f4 [32]
-0.008280947 -0.1097012 -0.039044682 -0.009136831 -0.006988671 0.052043904 -0.06289697 -0.016828269
0.057109863 -0.056482397 -0.0005462955 -0.0026385472 -0.028649513 -0.14240825 -0.03711574 -0.002144707
-0.053778566 -0.120348364 -0.041850675 -0.06911957 0.003305842 -0.0062387935 0.01160531 -0.06894257
-0.015004224 -0.11393434 0.062830016 -0.101628765 -0.048251726 -0.007060335 0.1497817 -0.0069228164
00000000: cfac 07bc 06ab e0bd 51ed 1fbd a6b2 15bc
00000010: 3901 e5bb fd2b 553d 20d0 80bd 70db 89bc
00000020: 08ec 693d 165a 67bd 4535 0fba 7aeb 2cbb
00000030: 62b2 eabc 78d3 11be ad06 18bd 368e 0cbb
00000040: ea46 5cbd 3479 f6bd 9d6b 2bbd 908e 8dbd
00000050: d3a6 583b cb6e ccbb 3324 3e3c c331 8dbd
00000060: 47d4 75bc 6856 e9bd 06ad 803d be22 d0bd
00000070: 9aa3 45bd 625a e7bb 6060 193e cbd8 e2bb

Conv2D_9_weights f4 [64, 32, 3, 3]
-0.07291229 0.043084536 -0.109368436 0.16902395 0.08616907 0.07622649 0.029827755 -0.16570975
-0.07622649 0.09942585 -0.06959809 -0.11931102 -0.009942585 -0.06296971 -0.13919619 -0.30490595
0.043084536 0.07954068 -0.003314195 -0.082854874 -0.016570974 -0.023199365 -0.07291229 -0.16570975
-0.28502077 -0.016570974 0.02651356 0.18559492 0.3380479 0.036456145 0.03314195 -0.009942585
-0.2618214 0.14913878 0.27839237 -0.016570974 -0.00662839 0.06959809 0.05965551 0.12925361
0.12593941 0.016570974 -0.12262522 -0.08616907 0.08948326 0.22205107 0.19553751 0.01325678
0.00662839 0.04639873 -0.19553751 0.056341313 0.14913878 0.009942585 0.03314195 0.023199365
-0.10274004 0.06959809 -0.14913878 -0.19222331 -0.16570975 -0.14913878 0.112682626 0.05302712
-0.112682626 -0.3380479 -0.01988517 -0.24193624 -0.14251038 -0.30490595 -0.082854874 0.18228072
0.07954068 -0.10605424 -0.09279746 0.109368436 -0.18228072 -0.3214769 -0.22867945 -0.036456145
-0.03977034 0.2618214 0.23199365 -0.112682626 0.03977034 -0.07954068 -0.18228072 -0.14913878
0.15576716 0.05965551 -0.109368436 -0.10605424 -0.08616907 -0.3214769 0.18890911 0.06959809
0.016570974 0.17896652 0.09279746 0.03314195 0.16902395 -0.12925361 -0.03314195 -0.17896652
-0.08616907 -0.19222331 -0.15245298 0.08948326 0.24525043 0.14582458 -0.13588199 0.14251038
-0.112682626 -0.21542268 -0.25187883 0.02651356 -0.009942585 0.06296971 -0.03314195 -0.21210848
0.0 -0.23862204 -0.08616907 -0.24856462 0.07954068 0.009942585 0.02651356 0.01988517
0.016570974 -0.16902395 0.01988517 -0.07622649 -0.09279746 0.096111655 0.06959809 -0.056341313
0.05965551 -0.082854874 0.03314195 0.03314195 -0.05965551 -0.14913878 0.01988517 0.10274004
-0.01325678 0.16570975 -0.009942585 0.11931102 0.14913878 -0.13588199 -0.003314195 -0.12593941
0.043084536 0.11931102 -0.01325678 -0.07622649 0.036456145 0.00662839 -0.036456145 -0.18890911
-0.00662839 0.00662839 0.14913878 0.16570975 -0.056341313 -0.03314195 -0.10274004 -0.24856462
-0.07954068 0.11599682 -0.023199365 0.13919619 0.08948326 -0.112682626 0.0 -0.24193624
0.01988517 -0.112682626 0.0 0.07954068 -0.14251038 -0.28170657 -0.3181627 -0.096111655
-0.003314195 0.009942585 -0.22205107 0.112682626 0.27176398 0.009942585 0.14582458 0.0
0.12593941 0.23862204 -0.06296971 0.14913878 0.049712926 -0.1988517 -0.23199365 -0.30822012
-0.42090276 -0.06959809 -0.029827755 0.05965551 -0.18228072 0.023199365 0.29496336 0.20216589
0.15576716 -0.15245298 0.10274004 -0.16570975 -0.12593941 -0.23862204 0.07954068 0.043084536
-0.15576716 -0.05965551 -0.04639873 0.05302712 -0.08948326 -0.07291229 -0.17896652 -0.056341313
0.06959809 0.08616907 0.003314195 -0.00662839 -0.023199365 -0.07954068 -0.056341313 -0.20548008
-0.05965551 0.07291229 -0.043084536 -0.1325678 -0.109368436 0.16902395 0.04639873 0.18559492
0.00662839 -0.22205107 0.12925361 0.12262522 0.03314195 0.01325678 -0.06296971 -0.06296971
-0.1325678 -0.27507818 -0.03314195 -0.003314195 0.056341313 -0.06959809 -0.109368436 0.029827755
00000000: 0a53 95bd 6979 303d 8ffc dfbd 9d14 2d3e
00000010: 6979 b03d a21c 9c3d 5659 f43c d1af 29be
00000020: a21c 9cbd c89f cb3d 7289 8ebd 5659 f4bd
00000030: 39e6 22bc 43f6 80bd 7289 0ebe a21c 9cbe
00000040: 6979 303d 39e6 a23d f732 59bb d1af a9bd
00000050: dabf 87bc 980c bebc 0a53 95bd d1af 29be
00000060: 3eee 91be dabf 87bc f732 d93c 980c 3e3e
00000070: 9d14 ad3e 0a53 153d dabf 073d 39e6 22bc
00000080: 740d 86be d6b7 183e 7289 8e3e dabf 87bc
00000090: f732 d9bb 7289 8e3d 5659 743d 0f5b 043e
000000a0: 43f6 003e dabf 873c ee22 fbbd 6979 b0bd
000000b0: 0043 b73d 5b61 633e fc3a 483e f732 593c
000000c0: f732 d93b 980c 3e3d fc3a 48be 26c6 663d
000000d0: d6b7 183e 39e6 223c dabf 073d 980c be3c
000000e0: 5f69 d2bd 7289 8e3d d6b7 18be 30d6 44be
000000f0: d1af 29be d6b7 18be 26c6 e63d f732 593d
00000100: 26c6 e6bd 9d14 adbe 39e6 a2bc 22be 77be
00000110: 3eee 11be a21c 9cbe d1af a9bd cca7 3a3e
00000120: 39e6 a23d f732 d9bd 980c bebd 8ffc df3d
00000130: cca7 3abe 9f98 a4be f22a 6abe 0a53 15bd
00000140: 39e6 22bd 740d 863e be8f 6d3e 26c6 e6bd
00000150: 39e6 223d 39e6 a2bd cca7 3abe d6b7 18be
00000160: 6d81 1f3e 5659 743d 8ffc dfbd f732 d9bd
00000170: 6979 b0bd 9f98 a4be 6471 413e 7289 8e3d
00000180: dabf 873c 0043 373e 980c be3d dabf 073d
00000190: 9d14 2d3e 0f5b 04be dabf 07bd 0043 37be
000001a0: 6979 b0bd 30d6 44be a21c 1cbe 0043 b73d
000001b0: ee22 7b3e 0a53 153e a624 0bbe 3eee 113e
000001c0: 26c6 e6bd c397 5cbe 43f6 80be f732 d93c
000001d0: 39e6 22bc 43f6 803d dabf 07bd f732 59be
000001e0: 0000 0000 5659 74be 6979 b0bd b987 7ebe
000001f0: 39e6 a23d 39e6 223c f732 d93c 39e6 a23c
00000200: dabf 873c 9d14 2dbe 39e6 a23c a21c 9cbd
00000210: 980c bebd 30d6 c43d 7289 8e3d 26c6 66bd
00000220: 5659 743d d1af a9bd dabf 073d dabf 073d
00000230: 5659 74bd d6b7 18be 39e6 a23c 5f69 d23d
00000240: f732 59bc d1af 293e 39e6 22bc 5659 f43d
00000250: d6b7 183e a624 0bbe f732 59bb 43f6 00be
00000260: 6979 303d 5659 f43d f732 59bc a21c 9cbd
00000270: 0a53 153d f732 d93b 0a53 15bd 6471 41be
00000280: f732 d9bb f732 d93b d6b7 183e d1af 293e
00000290: 26c6 66bd dabf 07bd 5f69 d2bd b987 7ebe
000002a0: 39e6 a2bd be8f ed3d 980c bebc 7289 0e3e
000002b0: 0043 b73d 26c6 e6bd 0000 0000 22be 77be
000002c0: 39e6 a23c 26c6 e6bd 0000 0000 39e6 a23d
000002d0: 3eee 11be d83b 90be 39e6 a2be 30d6 c4bd
000002e0: f732 59bb 39e6 223c 5b61 63be 26c6 e63d
000002f0: a624 8b3e 39e6 223c 0a53 153e 0000 0000
00000300: 43f6 003e 5659 743e 43f6 80bd d6b7 183e
00000310: c89f 4b3d c89f 4bbe be8f 6dbe 07cf 9dbe
00000320: 9180 d7be 7289 8ebd 5659 f4bc 5659 743d
00000330: cca7 3abe 980c be3c 7005 973e 9304 4f3e
00000340: 6d81 1f3e a21c 1cbe 5f69 d23d d1af 29be
00000350: 43f6 00be 5659 74be 39e6 a23d 6979 303d
00000360: 6d81 1fbe 5659 74bd 980c 3ebd f732 593d
00000370: 0043 b7bd 0a53 95bd 0043 37be 26c6 66bd
00000380: 7289 8e3d 6979 b03d f732 593b f732 d9bb
00000390: 980c bebc 39e6 a2bd 26c6 66bd 5f69 52be
000003a0: 5659 74bd 0a53 953d 6979 30bd dabf 07be
000003b0: 8ffc dfbd 9d14 2d3e 980c 3e3d 980c 3e3e
000003c0: f732 d93b 5b61 63be 0f5b 043e ee22 fb3d
000003d0: dabf 073d f732 593c 43f6 80bd 43f6 80bd
000003e0: dabf 07be 0cd7 8cbe dabf 07bd f732 59bb
000003f0: 26c6 663d 7289 8ebd 8ffc dfbd 5659 f43c

Conv2D_9_bias f4 [64]
-0.09803478 -0.04826308 -0.10518749 -0.048977245 -0.059681684 -0.101757444 -0.11162776 -0.048835896
-0.04008675 -0.021636106 -0.056406222 -0.16303334 -0.04336416 -0.051859137 -0.028074972 -0.10347024
-0.038003635 -0.013870682 -0.055255394 -0.061646238 -0.01111451 -0.017487988 -0.20766757 -0.017602649
-0.0015861635 -0.11116089 -0.14798516 -0.06828265 -0.0006551773 0.006114018 -0.10956695 0.023079
-0.038955934 -0.017617956 -0.0008975115 -0.0154407015 -0.02406635 0.0054010614 -0.020655327 0.02978275
0.036734723 -0.07440424 -0.09469968 -0.020160487 -0.008319289 0.050208636 -0.14383689 0.00489433
-0.04903999 -0.054172672 -0.06667711 0.036488477 -0.06833355 -0.028894534 -0.0011703129 -0.0706866
-0.08920896 -0.02287689 -0.06916696 0.008870352 -0.07745437 -0.13990265 -0.019095726 0.0099501
00000000: 75c6 c8bd 82af 45bd 8a6c d7bd 5d9c 48bd
00000010: c874 74bd 3566 d0bd 189d e4bd 2608 48bd
00000020: 0132 24bd 343e b1bc 360a 67bd 36f2 26be
00000030: 9e9e 31bd 3f6a 54bd 7cfd e5bc 35e8 d3bd
00000040: b3a9 1bbd db41 63bc 7b53 62bd c480 7cbd
00000050: a219 36bc f842 8fbc cfa6 54be 6e33 90bc
00000060: d1e6 cfba 52a8 e3bd 6c89 17be c6d7 8bbd
00000070: 34c0 2bba 1a58 c83b a364 e0bd 2c10 bd3c
00000080: 4290 1fbd 8853 90bc fa46 6bba fffa 7cbc
00000090: cb26 c5bc 63fb b03b 5c35 a9bc f4fa f33c
000000a0: 2677 163d 4061 98bd e8f1 c1bd 9b27 a5bc
000000b0: a14d 08bc 92a7 4d3d fa49 13be 9e60 a03b
000000c0: 28de 48bd 2ae4 5dbd 028e 88bd f174 153d
000000d0: 76f2 8bbd 3bb4 ecbc 2f65 99ba 23c4 90bd
000000e0: 30b3 b6bd 5168 bbbc 68a7 8dbd f454 113c
000000f0: 66a0 9ebd a442 0fbe a46e 9cbc bf05 233c

Gemm_16_weights f4 [1600, 10]
0.010002861 0.07002003 0.030008582 0.035010014 -0.13503861 0.0 -0.09502718 0.030008582
0.025007151 0.025007151 -0.15504435 -0.0050014304 -0.12003433 -0.07002003 0.065018594 0.035010014
0.21006007 0.07002003 0.025007151 -0.2800801 -0.08002289 0.14004005 -0.19505578 0.11003147
0.1150329 0.07002003 0.10503004 0.07002003 -0.060017165 -0.48013732 -0.10503004 0.055015735
0.010002861 -0.050014302 -0.07502145 0.035010014 -0.08502432 -0.010002861 -0.035010014 0.040011443
-0.060017165 -0.0050014304 -0.18505293 0.040011443 0.010002861 0.010002861 0.18005149 0.07002003
-0.08502432 -0.14504148 0.060017165 -0.18005149 0.08002289 0.1150329 -0.07502145 -0.19505578
-0.060017165 -0.020005722 0.090025745 0.090025745 -0.045012873 0.015004291 0.0050014304 -0.055015735
0.015004291 -0.14004005 -0.040011443 0.08502432 -0.07002003 -0.08002289 -0.08002289 -0.13003719
0.14504148 0.09502718 -0.14004005 -0.3000858 -0.07502145 -0.09502718 -0.13003719 -0.090025745
-0.015004291 0.020005722 0.08002289 -0.025007151 -0.1500429 -0.07002003 -0.09502718 0.030008582
-0.035010014 0.19505578 0.0 -0.015004291 0.025007151 0.025007151 0.015004291 -0.07502145
-0.0050014304 0.010002861 0.025007151 0.060017165 -0.0050014304 -0.15504435 0.025007151 0.12003433
-0.07502145 -0.090025745 -0.020005722 -0.12003433 -0.025007151 0.07502145 -0.045012873 -0.050014302
-0.055015735 0.040011443 0.0 -0.1500429 0.040011443 -0.11003147 0.035010014 -0.055015735
-0.045012873 0.025007151 -0.10503004 0.030008582 -0.040011443 0.025007151 -0.045012873 0.090025745
-0.050014302 -0.060017165 0.13003719 0.050014302 -0.050014302 0.020005722 -0.035010014 -0.030008582
-0.065018594 0.11003147 -0.100028604 0.0050014304 0.09502718 -0.015004291 -0.020005722 0.050014302
-0.090025745 -0.13503861 -0.09502718 -0.015004291 0.12003433 -0.010002861 -0.12503576 0.07502145
-0.17004864 0.13003719 0.025007151 -0.060017165 0.13503861 0.030008582 -0.100028604 -0.18505293
0.07502145 -0.020005722 -0.07502145 -0.010002861 0.025007151 -0.040011443 0.1150329 0.060017165
-0.035010014 -0.1500429 -0.025007151 -0.010002861 0.045012873 0.07502145 0.0 -0.3100887
-0.0050014304 0.14504148 -0.07002003 -0.29008296 -0.09502718 0.12503576 -0.07502145 -0.090025745
0.0 0.10503004 0.14004005 0.07502145 -0.20005721 -0.36010298 -0.14004005 -0.16004577
0.040011443 0.12503576 -0.08002289 -0.16004577 -0.035010014 -0.035010014 -0.32509297 -0.13503861
-0.020005722 0.14504148 -0.020005722 -0.07002003 0.0 0.14504148 -0.12503576 -0.010002861
0.030008582 0.050014302 -0.060017165 0.015004291 0.08502432 0.07002003 0.060017165 -0.030008582
-0.08502432 -0.11003147 -0.035010014 -0.060017165 -0.030008582 -0.19005436 0.035010014 0.015004291
-0.100028604 -0.17004864 -0.010002861 -0.055015735 0.12503576 0.090025745 -0.08502432 0.065018594
-0.090025745 0.040011443 0.0 -0.035010014 -0.015004291 0.0050014304 -0.0050014304 -0.055015735
0.040011443 0.060017165 0.020005722 -0.030008582 0.035010014 -0.1150329 -0.19505578 0.1150329
0.025007151 0.015004291 0.030008582 -0.10503004 -0.07002003 0.050014302 -0.050014302 -0.0050014304
00000000: 0ae3 233c a966 8f3d 8fd4 f53c a966 0f3d
00000010: 9047 0abe 0000 0000 9c9d c2bd 8fd4 f53c
00000020: ccdb cc3c ccdb cc3c f2c3 1ebe 0ae3 a3bb
00000030: 8fd4 f5bd a966 8fbd 7828 853d a966 0f3d
00000040: fd19 573e a966 8f3d ccdb cc3c a966 8fbe
00000050: 0ae3 a3bd a966 0f3e b4bc 47be 2e58 e13d
00000060: 5e96 eb3d a966 8f3d fd19 d73d a966 8f3d
00000070: 8fd4 75bd 8fd4 f5be fd19 d7bd 2e58 613d
00000080: 0ae3 233c ccdb 4cbd d9a4 99bd a966 0f3d
00000090: 3b21 aebd 0ae3 23bc a966 0fbd 0ae3 233d
000000a0: 8fd4 75bd 0ae3 a3bb 847e 3dbe 0ae3 233d
000000b0: 0ae3 233c 0ae3 233c 6b5f 383e a966 8f3d
000000c0: 3b21 aebd c185 14be 8fd4 753d 6b5f 38be
000000d0: 0ae3 a33d 5e96 eb3d d9a4 99bd b4bc 47be
000000e0: 8fd4 75bd 0ae3 a3bc 6b5f b83d 6b5f b83d
000000f0: 6b5f 38bd 8fd4 753c 0ae3 a33b 2e58 61bd
00000100: 8fd4 753c a966 0fbe 0ae3 23bd 3b21 ae3d
00000110: a966 8fbd 0ae3 a3bd 0ae3 a3bd 7828 05be
00000120: c185 143e 9c9d c23d a966 0fbe d9a4 99be
00000130: d9a4 99bd 9c9d c2bd 7828 05be 6b5f b8bd
00000140: 8fd4 75bc 0ae3 a33c 0ae3 a33d ccdb ccbc
00000150: d9a4 19be a966 8fbd 9c9d c2bd 8fd4 f53c
00000160: a966 0fbd b4bc 473e 0000 0000 8fd4 75bc
00000170: ccdb cc3c ccdb cc3c 8fd4 753c d9a4 99bd
00000180: 0ae3 a3bb 0ae3 233c ccdb cc3c 8fd4 753d
00000190: 0ae3 a3bb f2c3 1ebe ccdb cc3c 8fd4 f53d
000001a0: d9a4 99bd 6b5f b8bd 0ae3 a3bc 8fd4 f5bd
000001b0: ccdb ccbc d9a4 993d 6b5f 38bd ccdb 4cbd
000001c0: 2e58 61bd 0ae3 233d 0000 0000 d9a4 19be
000001d0: 0ae3 233d 2e58 e1bd a966 0f3d 2e58 61bd
000001e0: 6b5f 38bd ccdb cc3c fd19 d7bd 8fd4 f53c
000001f0: 0ae3 23bd ccdb cc3c 6b5f 38bd 6b5f b83d
00000200: ccdb 4cbd 8fd4 75bd 7828 053e ccdb 4c3d
00000210: ccdb 4cbd 0ae3 a33c a966 0fbd 8fd4 f5bc
00000220: 7828 85bd 2e58 e13d ccdb ccbd 0ae3 a33b
00000230: 9c9d c23d 8fd4 75bc 0ae3 a3bc ccdb 4c3d
00000240: 6b5f b8bd 9047 0abe 9c9d c2bd 8fd4 75bc
00000250: 8fd4 f53d 0ae3 23bc 6009 00be d9a4 993d
00000260: 3b21 2ebe 7828 053e ccdb cc3c 8fd4 75bd
00000270: 9047 0a3e 8fd4 f53c ccdb ccbd 847e 3dbe
00000280: d9a4 993d 0ae3 a3bc d9a4 99bd 0ae3 23bc
00000290: ccdb cc3c 0ae3 23bd 5e96 eb3d 8fd4 753d
000002a0: a966 0fbd d9a4 19be ccdb ccbc 0ae3 23bc
000002b0: 6b5f 383d d9a4 993d 0000 0000 f2c3 9ebe
000002c0: 0ae3 a3bb c185 143e a966 8fbd c185 94be
000002d0: 9c9d c2bd 6009 003e d9a4 99bd 6b5f b8bd
000002e0: 0000 0000 fd19 d73d a966 0f3e d9a4 993d
000002f0: ccdb 4cbe 6b5f b8be a966 0fbe 0ae3 23be
00000300: 0ae3 233d 6009 003e 0ae3 a3bd 0ae3 23be
00000310: a966 0fbd a966 0fbd 9672 a6be 9047 0abe
00000320: 0ae3 a3bc c185 143e 0ae3 a3bc a966 8fbd
00000330: 0000 0000 c185 143e 6009 00be 0ae3 23bc
00000340: 8fd4 f53c ccdb 4c3d 8fd4 75bd 8fd4 753c
00000350: 3b21 ae3d a966 8f3d 8fd4 753d 8fd4 f5bc
00000360: 3b21 aebd 2e58 e1bd a966 0fbd 8fd4 75bd
00000370: 8fd4 f5bc 9c9d 42be a966 0f3d 8fd4 753c
00000380: ccdb ccbd 3b21 2ebe 0ae3 23bc 2e58 61bd
00000390: 6009 003e 6b5f b83d 3b21 aebd 7828 853d
000003a0: 6b5f b8bd 0ae3 233d 0000 0000 a966 0fbd
000003b0: 8fd4 75bc 0ae3 a33b 0ae3 a3bb 2e58 61bd
000003c0: 0ae3 233d 8fd4 753d 0ae3 a33c 8fd4 f5bc
000003d0: a966 0f3d 5e96 ebbd b4bc 47be 5e96 eb3d
000003e0: ccdb cc3c 8fd4 753c 8fd4 f53c fd19 d7bd
000003f0: a966 8fbd ccdb 4c3d ccdb 4cbd 0ae3 a3bb

Gemm_16_bias f4 [10]
0.03384445 0.15248497 -0.017322933 -0.053016808 -0.07320635 -0.022038963 -0.038591303 0.008723115
0.007829227 0.009370413
00000000: 7aa0 0a3d 0525 1c3e d3e8 8dbc 2728 59bd
00000010: 36ed 95bd 0e8b b4bc ea11 1ebd 65eb 0e3c
00000020: 2846 003c 5c86 193c
